Found 6400 images belonging to 4 classes.
Found 1600 images belonging to 4 classes.
 Classes: {'bass': 0, 'flute': 1, 'guitar': 2, 'organ': 3}
Model: "sequential_1"
┏━━━━━━━━━━━━━━━━━━━━━━━━━━━━━━━━━┳━━━━━━━━━━━━━━━━━━━━━━━━┳━━━━━━━━━━━━━━━┓
┃ Layer (type)                    ┃ Output Shape           ┃       Param # ┃
┡━━━━━━━━━━━━━━━━━━━━━━━━━━━━━━━━━╇━━━━━━━━━━━━━━━━━━━━━━━━╇━━━━━━━━━━━━━━━┩
│ conv2d_3 (Conv2D)               │ (None, 94, 94, 16)     │           448 │
├─────────────────────────────────┼────────────────────────┼───────────────┤
│ max_pooling2d_3 (MaxPooling2D)  │ (None, 47, 47, 16)     │             0 │
├─────────────────────────────────┼────────────────────────┼───────────────┤
│ conv2d_4 (Conv2D)               │ (None, 45, 45, 32)     │         4,640 │
├─────────────────────────────────┼────────────────────────┼───────────────┤
│ max_pooling2d_4 (MaxPooling2D)  │ (None, 22, 22, 32)     │             0 │
├─────────────────────────────────┼────────────────────────┼───────────────┤
│ conv2d_5 (Conv2D)               │ (None, 20, 20, 64)     │        18,496 │
├─────────────────────────────────┼────────────────────────┼───────────────┤
│ max_pooling2d_5 (MaxPooling2D)  │ (None, 10, 10, 64)     │             0 │
├─────────────────────────────────┼────────────────────────┼───────────────┤
│ flatten_1 (Flatten)             │ (None, 6400)           │             0 │
├─────────────────────────────────┼────────────────────────┼───────────────┤
│ dense_2 (Dense)                 │ (None, 128)            │       819,328 │
├─────────────────────────────────┼────────────────────────┼───────────────┤
│ dropout_1 (Dropout)             │ (None, 128)            │             0 │
├─────────────────────────────────┼────────────────────────┼───────────────┤
│ dense_3 (Dense)                 │ (None, 4)              │           516 │
└─────────────────────────────────┴────────────────────────┴───────────────┘
 Total params: 843,428 (3.22 MB)
 Trainable params: 843,428 (3.22 MB)
 Non-trainable params: 0 (0.00 B)
Epoch 1/15
400/400 ━━━━━━━━━━━━━━━━━━━━ 66s 152ms/step - accuracy: 0.4977 - loss: 1.1136 - val_accuracy: 0.7119 - val_loss: 0.6469
Epoch 2/15
400/400 ━━━━━━━━━━━━━━━━━━━━ 61s 152ms/step - accuracy: 0.7254 - loss: 0.6905 - val_accuracy: 0.7556 - val_loss: 0.6226
…
