…
--
Configuration: Epochs=50, Batch Size=32, Dropout=0.5, L2=0.001
Loading training dataset...
Found 26795 files belonging to 11 classes.
Loading validation dataset...
Found 1346 files belonging to 11 classes.
Found 11 classes: ['cel', 'cla', 'flu', 'gac', 'gel', 'org', 'pia', 'sax', 'tru', 'vio', 'voi']
Building model with Dropout=0.5 and L2=0.001...
Model: "sequential"
_________________________________________________________________
 Layer (type)                Output Shape              Param #   
=================================================================
 rescaling (Rescaling)       (None, 128, 128, 3)       0         
                                                                 
 conv2d (Conv2D)             (None, 128, 128, 16)      448       
                                                                 
 batch_normalization (BatchN  (None, 128, 128, 16)     64        
 ormalization)                                                   
                                                                 
 max_pooling2d (MaxPooling2D  (None, 64, 64, 16)       0         
 )                                                               
                                                                 
 conv2d_1 (Conv2D)           (None, 64, 64, 32)        4640      
                                                                 
 batch_normalization_1 (Batc  (None, 64, 64, 32)       128       
 hNormalization)                                                 
                                                                 
 max_pooling2d_1 (MaxPooling  (None, 32, 32, 32)       0         
 2D)                                                             
                                                                 
 conv2d_2 (Conv2D)           (None, 32, 32, 64)        18496     
                                                                 
 batch_normalization_2 (Batc  (None, 32, 32, 64)       256       
 hNormalization)                                                 
                                                                 
 max_pooling2d_2 (MaxPooling  (None, 16, 16, 64)       0         
 2D)                                                             
                                                                 
 dropout (Dropout)           (None, 16, 16, 64)        0         
                                                                 
 global_average_pooling2d (G  (None, 64)               0         
 lobalAveragePooling2D)                                          
                                                                 
 dense (Dense)               (None, 128)               8320      
                                                                 
 batch_normalization_3 (Batc  (None, 128)              512       
 hNormalization)                                                 
                                                                 
 dropout_1 (Dropout)         (None, 128)               0         
                                                                 
 dense_1 (Dense)             (None, 11)                1419      
                                                                 
=================================================================
Total params: 34,283
Trainable params: 33,803
Non-trainable params: 480
_________________________________________________________________
Starting training for 50 epochs...
Epoch 1/50
  1/838 [..............................] - ETA: 4:10:45 - loss: 3.6549 - acc
…
