…
--
Configuration: Epochs=50, Batch Size=32, Dropout=0.5, L2=0.001
Loading training dataset...
Found 26795 files belonging to 11 classes.
Loading validation dataset...
Found 1346 files belonging to 11 classes.
Found 11 classes: ['cel', 'cla', 'flu', 'gac', 'gel', 'org', 'pia', 'sax', 'tru', 'vio', 'voi']
Building model with Dropout=0.5 and L2=0.001...
Model: "sequential"
_________________________________________________________________
 Layer (type)                Output Shape              Param #   
=================================================================
 rescaling (Rescaling)       (None, 224, 224, 3)       0         
                                                                 
 conv2d (Conv2D)             (None, 224, 224, 32)      2432      
                                                                 
 batch_normalization (BatchN  (None, 224, 224, 32)     128       
 ormalization)                                                   
                                                                 
 max_pooling2d (MaxPooling2D  (None, 112, 112, 32)     0         
 )                                                               
                                                                 
 conv2d_1 (Conv2D)           (None, 112, 112, 64)      18496     
                                                                 
 batch_normalization_1 (Batc  (None, 112, 112, 64)     256       
 hNormalization)                                                 
                                                                 
 max_pooling2d_1 (MaxPooling  (None, 56, 56, 64)       0         
 2D)                                                             
                                                                 
 conv2d_2 (Conv2D)           (None, 56, 56, 128)       73856     
                                                                 
 batch_normalization_2 (Batc  (None, 56, 56, 128)      512       
 hNormalization)                                                 
                                                                 
 max_pooling2d_2 (MaxPooling  (None, 28, 28, 128)      0         
 2D)                                                             
                                                                 
 conv2d_3 (Conv2D)           (None, 28, 28, 256)       295168    
                                                                 
 batch_normalization_3 (Batc  (None, 28, 28, 256)      1024      
 hNormalization)                                                 
                                                                 
 max_pooling2d_3 (MaxPooling  (None, 14, 14, 256)      0         
 2D)                                                             
                                                                 
 dropout (Dropout)           (None, 14, 14, 256)       0         
                                                                 
 global_average_pooling2d (G  (None, 256)              0         
 lobalAveragePooling2D)                                          
                                                                 
 dense (Dense)               (None, 256)               65792     
                                                                 
 batch_normalization_4 (Batc  (None, 256)              1024      
 hNormalization)                                                 
                                                                 
 dropout_1 (Dropout)         (None, 256)               0         
                                                                 
 dense_1 (Dense)             (None, 11)                2827      
                                                                 
=================================================================
Total params: 461,515
Trainable params: 460,043
Non-trainable params: 1,472
_________________________________________________________________
Starting training for 50 epochs...
Calculating class weights...
Computed Class Weights: {'cel': '1.57', 'cla': '1.21', 'flu': '1.35', 'gac': '0.96', 'gel': '0.80', 'org': '0.89', 'pia': '0.85', 'sax': '0.97', 'tru': '1.06', 'vio': '1.05', 'voi': '0.78'}
…
